scripts/rl_train.py --rm-file src/reward_machines/rm_files/grid-env/loop.txt --seed 1

Namespace(seed=1, model=None, log_interval=1, save_interval=10, procs=16, frames=15000000, wandb=False, rm_file='src/reward_machines/rm_files/grid-env/loop.txt', rm_algo=None)

Device: cuda

Training status loaded

Observations preprocessor loaded
Actor-critic model loaded

GridACModel(
  (conv_net): Sequential(
    (0): Conv2d(6, 16, kernel_size=(3, 3), stride=(1, 1), padding=(1, 1))
    (1): ReLU()
    (2): Conv2d(16, 32, kernel_size=(3, 3), stride=(1, 1), padding=(1, 1))
    (3): ReLU()
    (4): Flatten(start_dim=1, end_dim=-1)
  )
  (actor): PolicyNetwork(
    (enc_): Sequential(
      (0): Sequential(
        (0): Linear(in_features=2051, out_features=128, bias=True)
        (1): LayerNorm((128,), eps=1e-05, elementwise_affine=True)
        (2): ReLU()
      )
      (1): Sequential(
        (0): Linear(in_features=128, out_features=64, bias=True)
        (1): LayerNorm((64,), eps=1e-05, elementwise_affine=True)
        (2): ReLU()
      )
    )
    (out_layer): Linear(in_features=64, out_features=4, bias=True)
  )
  (critic): Sequential(
    (0): Linear(in_features=2051, out_features=128, bias=True)
    (1): ReLU()
    (2): Linear(in_features=128, out_features=64, bias=True)
    (3): ReLU()
    (4): Linear(in_features=64, out_features=1, bias=True)
  )
)

Foundation model loaded

GridEnvFoundationModel(
  (classifier): Sequential(
    (0): Conv2d(6, 16, kernel_size=(3, 3), stride=(1, 1), padding=(1, 1))
    (1): ReLU()
    (2): Conv2d(16, 32, kernel_size=(3, 3), stride=(1, 1), padding=(1, 1))
    (3): ReLU()
    (4): Flatten(start_dim=1, end_dim=-1)
    (5): Linear(in_features=2048, out_features=128, bias=True)
    (6): ReLU()
    (7): Linear(in_features=128, out_features=5, bias=True)
  )
  (progress): Sequential(
    (0): Conv2d(6, 32, kernel_size=(3, 3), stride=(1, 1), padding=(1, 1))
    (1): ReLU()
    (2): Conv2d(32, 32, kernel_size=(3, 3), stride=(1, 1), padding=(1, 1))
    (3): ReLU()
    (4): Flatten(start_dim=1, end_dim=-1)
    (5): Linear(in_features=2048, out_features=256, bias=True)
    (6): ReLU()
    (7): Linear(in_features=256, out_features=19, bias=True)
  )
  (q): Sequential(
    (0): Conv2d(6, 32, kernel_size=(3, 3), stride=(1, 1), padding=(1, 1))
    (1): ReLU()
    (2): Conv2d(32, 32, kernel_size=(3, 3), stride=(1, 1), padding=(1, 1))
    (3): ReLU()
    (4): Flatten(start_dim=1, end_dim=-1)
    (5): Linear(in_features=2048, out_features=256, bias=True)
    (6): ReLU()
    (7): Linear(in_features=256, out_features=76, bias=True)
  )
)

Optimizer loaded

U 1 | F 016000 | FPS 0799 | D 20 | true R:μσmM 0.03 0.17 0.00 1.00 | agent R:μσmM 0.21 0.28 -0.22 1.08 | agent sparse R:μσmM 0.03 0.17 0.00 1.00  | F:μσmM 100.0 0.0 100.0 100.0 | H 1.384 | V 0.025 | pL -0.016 | vL 0.004 | ∇ 0.009
U 2 | F 032000 | FPS 0987 | D 36 | true R:μσmM 0.02 0.14 0.00 1.00 | agent R:μσmM 0.18 0.27 -0.16 1.67 | agent sparse R:μσmM 0.02 0.14 0.00 1.00  | F:μσmM 100.0 0.0 100.0 100.0 | H 1.383 | V 0.036 | pL -0.006 | vL 0.004 | ∇ 0.010
…
