scripts/rl_train.py --wandb --seed 1

Namespace(seed=1, model=None, log_interval=1, save_interval=3, procs=16, frames=15000000, wandb=True, rm_file=None, rm_algo=None)

Device: cuda

Training status loaded

Observations preprocessor loaded
Actor-critic model loaded

DrawerACModel(
  (actor): PolicyNetwork(
    (enc_): Sequential(
      (0): Sequential(
        (0): Linear(in_features=80, out_features=512, bias=True)
        (1): ReLU()
      )
      (1): Sequential(
        (0): Linear(in_features=512, out_features=512, bias=True)
        (1): ReLU()
      )
      (2): Sequential(
        (0): Linear(in_features=512, out_features=512, bias=True)
        (1): ReLU()
      )
    )
    (out_layer): Linear(in_features=512, out_features=8, bias=True)
    (std_scale): Softplus(beta=1, threshold=20)
  )
  (critic): Sequential(
    (0): Linear(in_features=80, out_features=512, bias=True)
    (1): ReLU()
    (2): Linear(in_features=512, out_features=512, bias=True)
    (3): ReLU()
    (4): Linear(in_features=512, out_features=512, bias=True)
    (5): ReLU()
    (6): Linear(in_features=512, out_features=1, bias=True)
  )
)

Foundation model loaded

DrawerEnvFoundationModel(
  (classifier): Sequential(
    (0): Linear(in_features=39, out_features=1600, bias=True)
    (1): ReLU()
    (2): Linear(in_features=1600, out_features=11, bias=True)
  )
  (progress): Sequential(
    (0): Linear(in_features=39, out_features=1600, bias=True)
    (1): ReLU()
    (2): Linear(in_features=1600, out_features=400, bias=True)
    (3): ReLU()
    (4): Linear(in_features=400, out_features=22, bias=True)
  )
)

Optimizer loaded

U 1 | F 064000 | FPS 0406 | D 157 | true R:μσmM 0.00 0.00 0.00 0.00 | agent R:μσmM 0.48 1.27 -1.81 4.67 | agent sparse R:μσmM 0.00 0.00 0.00 0.00  | F:μσmM 2000.0 0.0 2000.0 2000.0 | H 0.658 | V 0.164 | pL 0.172 | vL 0.040 | ∇ 0.035
U 2 | F 128000 | FPS 0376 | D 328 | true R:μσmM 0.00 0.00 0.00 0.00 | agent R:μσmM 0.31 1.35 -1.83 4.57 | agent sparse R:μσmM 0.00 0.00 0.00 0.00  | F:μσmM 2000.0 0.0 2000.0 2000.0 | H 0.663 | V 0.074 | pL 0.082 | vL 0.100 | ∇ 0.038
…
