scripts/rl_train.py --wandb --seed 1

Namespace(seed=1, model=None, log_interval=1, save_interval=10, procs=16, frames=15000000, wandb=True, rm_file=None, rm_algo=None)

Device: cuda

Training status loaded

Observations preprocessor loaded
Actor-critic model loaded

DrawerACModel(
  (actor): PolicyNetwork(
    (enc_): Sequential(
      (0): Sequential(
        (0): Linear(in_features=80, out_features=512, bias=True)
        (1): ReLU()
      )
      (1): Sequential(
        (0): Linear(in_features=512, out_features=512, bias=True)
        (1): ReLU()
      )
      (2): Sequential(
        (0): Linear(in_features=512, out_features=512, bias=True)
        (1): ReLU()
      )
    )
    (out_layer): Linear(in_features=512, out_features=8, bias=True)
    (std_scale): Softplus(beta=1, threshold=20)
  )
  (critic): Sequential(
    (0): Linear(in_features=80, out_features=512, bias=True)
    (1): ReLU()
    (2): Linear(in_features=512, out_features=512, bias=True)
    (3): ReLU()
    (4): Linear(in_features=512, out_features=512, bias=True)
    (5): ReLU()
    (6): Linear(in_features=512, out_features=1, bias=True)
  )
)

Foundation model loaded

DrawerEnvFoundationModel(
  (classifier): Sequential(
    (0): Linear(in_features=39, out_features=1600, bias=True)
    (1): ReLU()
    (2): Linear(in_features=1600, out_features=11, bias=True)
  )
  (progress): Sequential(
    (0): Linear(in_features=39, out_features=1600, bias=True)
    (1): ReLU()
    (2): Linear(in_features=1600, out_features=400, bias=True)
    (3): ReLU()
    (4): Linear(in_features=400, out_features=22, bias=True)
  )
)

Optimizer loaded

U 1 | F 064000 | FPS 0557 | D 114 | true R:μσmM 0.00 0.00 0.00 0.00 | agent R:μσmM 0.27 0.59 -0.03 2.06 | agent sparse R:μσmM 0.00 0.00 0.00 0.00  | F:μσmM 2000.0 0.0 2000.0 2000.0 | H 0.659 | V 0.176 | pL 0.173 | vL 0.013 | ∇ 0.027
U 2 | F 128000 | FPS 0538 | D 233 | true R:μσmM 0.00 0.00 0.00 0.00 | agent R:μσmM 0.87 0.68 -0.00 1.85 | agent sparse R:μσmM 0.00 0.00 0.00 0.00  | F:μσmM 2000.0 0.0 2000.0 2000.0 | H 0.659 | V 0.109 | pL 0.068 | vL 0.046 | ∇ 0.042
…
